…
  self.rangeInds = torch.range(0, self.numInst['train']-1).long();
Arguments:
	          useGPU : True
	       numRounds : 2
	       rlNegMult : 10
	      hiddenSize : 100
	     negFraction : 0.8
	       numEpochs : 100000
	     imgFeatSize : 20
	       batchSize : 1000
	        overhear : False
	       qOutVocab : 3
	         dataset : data/toy64_split_0.8-0.1.json
	         rlScale : 100.0
	    learningRate : 0.01
	       embedSize : 20
	          rshare : True
	            seed : 0
	    overhearTask : False
	       rlPosMult : 1
	overhearFraction : 0.5
	       aOutVocab : 4
	        remember : False
Answerer(
  (inNet): Embedding(8, 20)
  (outNet): Linear(in_features=100, out_features=4, bias=True)
  (softmax): Softmax()
  (imgNet): Embedding(12, 20)
  (rnn): LSTMCell(80, 100)
)
Questioner(
  (inNet): Embedding(18, 20)
  (outNet): Linear(in_features=100, out_features=3, bias=True)
  (softmax): Softmax()
  (rnn): LSTMCell(20, 100)
  (predictRNN): LSTMCell(20, 100)
  (predictNet): Linear(in_features=100, out_features=12, bias=True)
)
Answerer(
  (inNet): Embedding(8, 20)
  (outNet): Linear(in_features=100, out_features=4, bias=True)
  (softmax): Softmax()
  (imgNet): Embedding(12, 20)
  (rnn): LSTMCell(80, 100)
)
Questioner(
  (inNet): Embedding(18, 20)
  (outNet): Linear(in_features=100, out_features=3, bias=True)
  (softmax): Softmax()
  (rnn): LSTMCell(20, 100)
  (predictRNN): LSTMCell(20, 100)
  (predictNet): Linear(in_features=100, out_features=12, bias=True)
)
/media/bighdd8/paul/emergent_language/lang-emerge/dataloader.py:189: UserWarning: torch.range is deprecated in favor of torch.arange and will be removed in 0.5. Note that arange generates values in [start; end), not [start; end].
  tasks = torch.range(0, self.numPairTasks-1).long();
[Thu, 05 Sep 2019 11:03:02][Iter: 0][Ep: 0.00][R1: -10.5090][Tr1: 0.00 Va1: 0.00]
…
  self.rangeInds = torch.range(0, self.numInst['train']-1).long();
Arguments:
	          useGPU : True
	       numRounds : 2
	       rlNegMult : 10
	      hiddenSize : 100
	     negFraction : 0.8
	       numEpochs : 100000
	     imgFeatSize : 20
	       batchSize : 1000
	        overhear : False
	       qOutVocab : 3
	         dataset : data/toy64_split_0.8-0.1.json
	         rlScale : 100.0
	    learningRate : 0.01
	       embedSize : 20
	          rshare : True
	            seed : 0
	    overhearTask : False
	       rlPosMult : 1
	overhearFraction : 0.5
	       aOutVocab : 4
	        remember : False
Answerer(
  (inNet): Embedding(8, 20)
  (outNet): Linear(in_features=100, out_features=4, bias=True)
  (softmax): Softmax()
  (imgNet): Embedding(12, 20)
  (rnn): LSTMCell(80, 100)
)
Questioner(
  (inNet): Embedding(18, 20)
  (outNet): Linear(in_features=100, out_features=3, bias=True[Thu, 05 Sep 2019 11:25:36][Iter: 18000][Ep: 18000.00][R1: -0.9478][Tr1: 94.77 Va1: 72.22]
[Thu, 05 Sep 2019 11:25:36][Iter: 18000][Ep: 18000.00][R2: -2.1622][Tr2: 82.68 Va2: 33.33]
[Thu, 05 Sep 2019 11:27:47][Iter: 19000][Ep: 19000.00][R1: -0.8162][Tr1: 93.46 Va1: 66.67]
[Thu, 05 Sep 2019 11:27:47][Iter: 19000][Ep: 19000.00][R2: -2.0852][Tr2: 83.66 Va2: 27.78]
…
