…
  self.rangeInds = torch.range(0, self.numInst['train']-1).long();
Arguments:
	          useGPU : True
	       numRounds : 2
	       rlNegMult : 1
	      hiddenSize : 100
	     negFraction : 0.8
	       numEpochs : 100000
	     imgFeatSize : 20
	       batchSize : 1000
	        overhear : True
	       qOutVocab : 3
	         dataset : data/toy64_split_0.8-0.1.json
	         rlScale : 100.0
	    learningRate : 0.01
	       embedSize : 20
	          rshare : True
	            seed : 0
	    overhearTask : True
	       rlPosMult : 1
	overhearFraction : 0.5
	       aOutVocab : 4
	        remember : False
Answerer(
  (inNet): Embedding(11, 20)
  (outNet): Linear(in_features=100, out_features=4, bias=True)
  (softmax): Softmax()
  (imgNet): Embedding(12, 20)
  (rnn): LSTMCell(80, 100)
)
Questioner(
  (inNet): Embedding(31, 20)
  (outNet): Linear(in_features=100, out_features=3, bias=True)
  (softmax): Softmax()
  (rnn): LSTMCell(20, 100)
  (predictRNN): LSTMCell(20, 100)
  (predictNet): Linear(in_features=100, out_features=12, bias=True)
)
Answerer(
  (inNet): Embedding(11, 20)
  (outNet): Linear(in_features=100, out_features=4, bias=True)
  (softmax): Softmax()
  (imgNet): Embedding(12, 20)
  (rnn): LSTMCell(80, 100)
)
Questioner(
  (inNet): Embedding(31, 20)
  (outNet): Linear(in_features=100, out_features=3, bias=True)
  (softmax): Softmax()
  (rnn): LSTMCell(20, 100)
  (predictRNN): LSTMCell(20, 100)
  (predictNet): Linear(in_features=100, out_features=12, bias=True)
)
/media/bighdd8/paul/emergent_language/lang-emerge/dataloader.py:189: UserWarning: torch.range is deprecated in favor of torch.arange and will be removed in 0.5. Note that arange generates values in [start; end), not [start; end].
  tasks = torch.range(0, self.numPairTasks-1).long();
[Thu, 05 Sep 2019 20:39:54][Iter: 0][Ep: 0.00][R1: -9.9010][Tr1: 0.00 Va1: 0.00]
…
